Refuerzo/robot.tflite (tflite, 3204 bytes, 3 tensors)

arith.constant f4 [4, 16]
00000000: 400a edbd 94c3 163e 3cdc f5bd d44f 00bf
00000010: 3c2e 0d3e 7ec9 d23e a02b 8a3c 7e71 b5be
00000020: 90cd 513d 9cc3 1a3e a6ee 8fbe f050 41bd
00000030: 4063 abbe 9e4c c53e 8628 5bbe ac9e 483e
00000040: 4fde 08bf 80e8 563c 06af e63e 4012 f7bd
00000050: 88c0 403e d04a f53e be11 943e 50f8 593d
00000060: 1085 ff3e 926b 06bf aed6 a7be d129 f1be
00000070: 8084 e03e a2e7 ac3e 6233 c73e 3877 223e
00000080: 50c0 abbe 601b c43e e8fb ab3e 983a e6be
00000090: 8cce 8e3e a891 b33e 407c 543d d2ca db3e
000000a0: 80a7 4d3d e660 f1be 48ea 813e 5c13 36be
000000b0: 78ea 873e 8a33 8c3e 64b8 053e fe02 e5be
000000c0: a28c de3e 6872 e43d d897 703e e4fc 023f
000000d0: de03 e33e d4c4 a73e fe58 943e b0f9 063f
000000e0: e888 eebd 48b6 f83e e63e a63e 2499 693e
000000f0: e229 c5be ead8 c33e 0cd5 5d3e 0055 bdbe
-0.11574221 0.14723045 -0.12004897 -0.5012181 0.13787168 0.4116935 0.016866505 -0.3543815
0.05122143 0.15113682 -0.28111762 -0.04719633 -0.3347416 0.38535017 -0.21402177 0.19591779
-0.53464216 0.013116956 0.45055407 -0.12064028 0.18823445 0.4790864 0.28919786 0.053215325
0.49906206 -0.5250789 -0.32780975 -0.47102216 0.4385109 0.33770472 0.3890639 0.15865791
-0.3354516 0.38302135 0.33590627 -0.44966578 0.27891958 0.35072064 0.051876307 0.42928177
0.05020857 -0.4714424 0.25374055 -0.17780823 0.26546073 0.2738307 0.1305862 -0.44728845
0.4346667 0.11154634 0.23495424 0.5116713 0.44338888 0.32767355 0.28974146 0.5272474
-0.116472065 0.4857657 0.32469863 0.22812325 -0.38508517 0.3825143 0.21663302 -0.36978912

arith.constant1 f4 [16, 16]
00000000: 52e8 ccbe 7ed3 b4be 952f b6be 9066 1ebd
00000010: 9008 88bd 3cca 9c3d c4b1 ea3d fb50 dbbe
00000020: c2f4 93be 40f2 103d f298 9dbe a86d 51be
00000030: 4d3c c83e 50b1 20be 79da a9be a624 60be
00000040: eb89 c8be 9ddc 903e db45 43be 21d8 a93e
00000050: 9fc4 bebe 9676 3d3e 6aa2 dbbe 6062 103c
00000060: a574 b53e 768d 7a3e 6f83 b83e 0091 55bc
00000070: 0acb 493e 4029 ddbe b1df d73e 4be7 3fbe
00000080: efb3 ca3e de96 3bbe 69e9 ca3e 4a85 773e
00000090: dc7f dfbd 7405 01be a4e2 b4bd a9cb cf3e
000000a0: 14dc 913d fa7b 083e 60f8 2bbe 821b 07be
000000b0: 05d1 c73e 8747 8e3e 3c05 bdbe 76aa d0be
000000c0: a7b0 903e 00a9 5dbd c64b 4d3e 3e8f 90be
000000d0: c4ec bd3d b0d7 0d3d d369 56be 3bf3 983e
000000e0: d2d1 64be 7ffd d3be 875f b43e d052 64be
000000f0: 9709 c23e 9389 933e 5a27 473e ccac 8e3d
00000100: 2921 883e d651 003e 43ea d23e b493 fbbd
00000110: b809 92bd 849a a4bd 490c 64be 1093 ea3c
00000120: 61f5 51be 08a3 d2be 4189 bd3e 7ca0 ad3d
00000130: 3fe2 d63e ab7f af3e 8de4 943e 7d46 cd3e
00000140: 2e4f 41be 2eb7 593e 9074 3d3d b036 283d
00000150: 4a9b 2c3e b01c 4fbd a739 9a3e f165 83be
00000160: 92c9 593e 63b1 b53e 7799 b13e f41b ae3d
00000170: 4300 b6be 5cf5 8bbd 0083 053c 8c4f 28be
00000180: f610 27be df65 43be 60a2 bfbe 700b 92be
00000190: 76ee 023e ffe3 993e 60e1 943c 4c89 e3bd
000001a0: b5b4 db3e 1005 b6be 60da 353d b887 3d3d
000001b0: 853c 9c3e d844 3fbd 8763 b03e fa73 d1be
000001c0: 6bf8 883e ca89 393e f81b 14be 0850 c1be
000001d0: 3039 96bc 98e3 c7bd 5495 b83d 550e c0be
000001e0: 6233 6b3e 6c2c f7bd a0e2 4dbd 0e61 8abe
000001f0: 5a4d 423e d0c2 f73c 5203 763e b674 9cbe
00000200: 6f2b d63e 7c2a 983d 4058 a83c a8cc 8ebd
00000210: fe6e 8dbe 94ac bfbe 40e2 753c 507f 60be
00000220: 9546 a93e faf4 443e b519 ccbe 582b 9ebe
00000230: 42e3 0bbe 1fd8 8a3e bd62 ad3e 0ea2 99be
00000240: 9450 ad3d 4ba9 76be 75f2 af3e cfd7 ae3e
00000250: 53b6 a83e 6816 b2be d06e bcbd 81c7 8b3e
00000260: 20d7 e43c c0b6 80bc 6c62 f63d 46a0 92be
00000270: 8e53 0bbe 4a03 a1be c671 163e 530a cc3e
00000280: e0af b1bd 8db7 c4be 2bd4 c43e 007c ebbc
00000290: 1091 dcbc 0a80 0cbe 8060 c73c 1a91 62be
000002a0: 6805 00be 9b78 893e 55ed d2be c859 a7bd
000002b0: 68f5 55bd e7f6 9cbe 8092 3b3c d8e2 aabd
000002c0: 9ec2 193e 3a96 433e e46e b23d 6b99 a83e
000002d0: 1340 b03e 9bbd cfbe 724e 5c3e f4ad 34be
000002e0: 5ca8 c0bd 6fd0 833e 447b 8e3d fcbd 963d
000002f0: 7d8e a33e 5282 a8be a024 35bd 9c02 933d
00000300: 3627 483e e356 ad3e 9a2d 503e ac71 883d
00000310: 6fe3 b4be 9c34 adbd ae3a 353e 9daf c23e
00000320: a80a 2f3d c91e 873e f2e2 97be 4453 d8be
00000330: 7bc6 a53e c182 dc3e e0ca 98bc 7ea1 733e
00000340: e1a0 c33e 3461 cd3d 86d9 183e 14bc 79be
00000350: ea1a 07be a32f af3e ea91 693e a9e2 a43e
00000360: 3ea1 4e3e c6a7 b4be 4954 d13e cb28 70be
00000370: 9840 93be 6a9e 3b3e ef22 903e b1a5 98be
00000380: 641b c23d a801 7fbd 6e2d cdbe 025e 2e3e
00000390: 8af2 dcbe da29 7a3e 770d 973e 20c3 79bc
000003a0: 7813 2fbe 54a9 e03d 3acf 053e a568 a23e
000003b0: 7ea5 713e 8c62 9bbe 417a 933e 20c4 6bbd
000003c0: d5f6 b03e a050 593c 0032 0dbb 72c8 a3be
000003d0: 34d3 a3be 3b25 dd3e e983 8f3e 3c9f d53d
000003e0: 0ee8 1ebe 73c7 a2be 53eb 9d3e 8075 2abb
000003f0: 1873 003d 08ce acbd a019 633c 1996 953e
-0.40020996 -0.35317606 -0.35583177 -0.03867203 -0.06642258 0.07655761 0.11459687 -0.4283522
-0.28897673 0.035387278 -0.3078075 -0.20451987 0.39108506 -0.1569264 -0.33174494 -0.2188898
-0.39167723 0.28293315 -0.19069616 0.33172706 -0.37259385 0.18502268 -0.4289735 0.008812517
0.35440555 0.24468026 0.36037776 -0.013035059 0.1970636 -0.43195534 0.4216285 -0.18740575
0.39590403 -0.1831927 0.39631203 0.2417194 -0.10913059 -0.12599736 -0.08832291 0.40585068
0.07122055 0.13328543 -0.16793966 -0.13194087 0.39026657 0.27788946 -0.36918056 -0.4075505
0.28259775 -0.05411625 0.20048437 -0.28234285 0.09273675 0.034629524 -0.20938806 0.2987307
-0.22345665 -0.4140434 0.35229132 -0.22297215 0.3789794 0.28815898 0.19448605 0.06966552
0.265878 0.12531218 0.41194353 -0.122840315 -0.0713076 -0.08037284 -0.22270311 0.028634578
-0.20503761 -0.41140008 0.3701878 0.084778756 0.41969487 0.3427709 0.2908062 0.4009284
-0.18877861 0.21261284 0.04625374 0.04106778 0.16856113 -0.050564468 0.3012211 -0.25663713
0.21268299 0.35486898 0.34687397 0.085014254 -0.35547075 -0.06833908 0.008148909 -0.16436595
-0.16315064 -0.1908183 -0.3742857 -0.2852435 0.12786278 0.3005676 0.018173873 -0.11110172
0.42911306 -0.35550737 0.04439771 0.04627201 0.30514923 -0.046696514 0.34450933 -0.40908796
0.26752028 0.18118969 -0.14463794 -0.37756371 -0.018337816 -0.09760207 0.09012857 -0.37510934
0.2296882 -0.1206902 -0.050264955 -0.27027172 0.1897482 0.030244261 0.24024704 -0.30557793
0.41830012 0.07429978 0.020549893 -0.06972629 -0.27623743 -0.37436354 0.0150075555 -0.21923566
0.33061662 0.19234076 -0.39863363 -0.30892444 -0.1366091 0.27118012 0.33864394 -0.3000645
0.08462635 -0.24088018 0.34364668 0.34149024 0.32951602 -0.3478272 -0.09200823 0.27300647
0.02793461 -0.015712142 0.12030491 -0.28637904 -0.13606092 -0.31447822 0.14691839 0.39851627
-0.086761236 -0.38421288 0.3844312 -0.028745651 -0.02692464 -0.13720718 0.024338007 -0.22125664
-0.12502062 0.26849827 -0.41196695 -0.08171421 -0.05223599 -0.30657122 0.011448503 -0.08344048
0.15015647 0.19100276 0.08712557 0.3292955 0.34423885 -0.40574345 0.215143 -0.17644483
-0.09407112 0.2574496 0.06957105 0.073604554 0.31944647 -0.32911927 -0.04422438 0.07178232
0.19546208 0.33855352 0.20329896 0.06662306 -0.35329768 -0.084573 0.17698166 0.38024607
0.042734772 0.26390675 -0.29665333 -0.42251027 0.3237799 0.43068507 -0.018651426 0.23792073
0.38208678 0.10028306 0.14926729 -0.24388152 -0.1319386 0.3421603 0.22809568 0.32204178
0.20178697 -0.3528425 0.40884617 -0.23453061 -0.2876022 0.18322149 0.28151652 -0.29813913
0.094778806 -0.06225744 -0.40073723 0.17028049 -0.43153793 0.24430028 0.2950246 -0.015244275
-0.1709727 0.10969797 0.13067332 0.31720462 0.23598287 -0.30348623 0.2880421 -0.057560086
0.34563318 0.013263851 -0.0021544695 -0.31988865 -0.31997073 0.43192467 0.28030327 0.10430762
-0.1551821 -0.31792793 0.308436 -0.0026009977 0.031359762 -0.08437735 0.01386109 0.29216078

sequential_1/dense_1/MatMul f4 [16, 3]
00000000: a1de 8ebe 6c89 2b3e 2441 e1bd c815 813e
00000010: 5e11 9dbe 6a72 a3be e8b9 413e 6011 993c
00000020: be06 d2be 86cd 73be 42be c6be 9005 a6be
00000030: 603d f2bd 9a17 b3be 44a3 f1be 7087 593d
00000040: 052b 0dbf 6060 0d3e c8c2 c7bd 2d90 013f
00000050: 7eb2 41be a874 5f3e f059 14bd 252c 00bf
00000060: e04a 8c3d 0683 8d3e 6652 53be 0076 61bc
00000070: d079 0b3d 4612 adbe 695b cfbe 100f 5c3d
00000080: 5496 6f3e feba e53e e4e7 d6be 4617 bebe
00000090: 60d8 893d f226 b7be a03c 56bd 78e0 d73d
000000a0: be87 87be 80e2 5c3e 7b01 05bf 26a2 62be
000000b0: 48cc ddbd 4b37 8abe 4539 043f 2060 873c
-0.27904227 0.16751641 -0.10998753 0.2521193 -0.30677313 -0.31923229 0.18918574 0.018685043
-0.4102077 -0.2380887 -0.3881703 -0.3242612 -0.118281126 -0.34978944 -0.47194874 0.05310768
-0.5514377 0.13806295 -0.097539485 0.5061062 -0.18915746 0.21821845 -0.036218584 -0.5006736
0.06850219 0.27639025 -0.20636901 -0.013761044 0.034051716 -0.33803004 -0.40499428 0.053725302
0.2339719 0.44869226 -0.41973794 -0.3712713 0.067307234 -0.357719 -0.05230391 0.10540861
-0.2647075 0.21570778 -0.51955384 -0.22132167 -0.10829979 -0.2699531 0.51649886 0.016525328
